models/model_cnn_workshop_HAR_0_96_v3.tflite (tflite, 288740 bytes, 8 tensors)

model_CNN/conv1d/BiasAdd/ReadVariableOp f4 [64]
00000000: f4ee 0bbc 989a 8eba b43f b53b 02c3 81bc
00000010: 2b49 803b 72bf 94bb cb53 fabb 837c 073c
00000020: a64d a93c f9e5 3cbb 4625 4f3c e3ef 25bc
00000030: 9a08 cc39 44e2 563c ba38 b73a 9c47 15bb
00000040: 28fa 1dbc e585 c23b 17c9 c7bb ad04 dabb
00000050: cbfd 0c3b a431 2b3b 5670 c8bb f0aa dc3a
00000060: 62d6 043c a8ee e8bb 9302 8cbc 3a3e 65bb
00000070: 72c7 95bb 2a63 a5bb 129f 23bc c1a5 ff3b
00000080: 9a97 12bc 032c a9bc 2eaf 833b 7da4 a63b
00000090: 4d50 173c 79a2 13bb d498 8e3b 95bd 683c
000000a0: 40e3 01bc 4f12 3a3c 18ae 1fbb ee8e 853a
000000b0: 50f6 6a3b a139 4abc 32e9 a2bc e83f cfbb
000000c0: 3a62 b1bb 4dd9 b83b 7118 d33b 831a 91bc
000000d0: bde6 08bc 920d 203b 8fc3 93ba 1751 4dbc
000000e0: cad3 313c f12b 0c3b dbeb 3f3a 3e01 083c
000000f0: bcbc 2bbb b4f8 b43b 4d5e f4bb b056 87bc
-0.008540858 -0.0010879813 0.0055312756 -0.015840057 0.0039149723 -0.0045394236 -0.0076393834 0.008269432
0.020666908 -0.0028823598 0.012643164 -0.010127994 0.0003891632 0.013115469 0.0013978698 -0.0022778278
-0.009642161 0.0059363716 -0.00609697 -0.0066533894 0.0021513577 0.0026122117 -0.006116907 0.0016835611
0.0081077535 -0.007108528 -0.017091071 -0.0034979717 -0.004570895 -0.0050472217 -0.009986656 0.007801742
-0.008947277 -0.02065087 0.004018686 0.0050855265 0.009235454 -0.0022527261 0.0043517146 0.014205356
-0.007927716 0.011356904 -0.0024365243 0.0010189691 0.003585238 -0.012342841 -0.019886587 -0.006324757
-0.005413321 0.0056411386 0.0064421226 -0.017712837 -0.008355794 0.002442215 -0.0011273491 -0.01253154
0.010853717 0.0021388496 0.0007321217 0.008301077 -0.0026205024 0.005522812 -0.0074575306 -0.016520828

model_CNN/conv1d_1/BiasAdd/ReadVariableOp f4 [32]
00000000: 1c97 a0bb 7108 0abb 1a9c 66b8 3602 a9bb
00000010: 3b02 ad3a d59d 3eba e125 c9b9 8f62 5abc
00000020: 9be0 8cbb c4e4 a639 aec5 33bb 61f0 183c
00000030: 450c 8abb bdf9 29bc d3aa 4fbc d2d7 01bb
00000040: e7cc 06bc 5653 cabb 5471 4aba 92c3 c3bb
00000050: 9ba8 dcbb 0dfe e8bb f256 b2bb 1694 e6bb
00000060: 465e 16bb f305 2cba c101 0dbb 5f25 5bbc
00000070: 377c b7bb 8e00 d6bb a453 28bc e1a7 3abc
-0.004900826 -0.002106216 -5.4981654e-05 -0.0051577343 0.0013199517 -0.00072714436 -0.0003836593 -0.013329162
-0.004299236 0.0003183243 -0.0027431059 0.009334655 -0.0042128884 -0.010374484 -0.012675005 -0.0019812477
-0.008227563 -0.006174485 -0.00077225757 -0.0059742415 -0.0067339665 -0.0071103633 -0.0054424936 -0.007036696
-0.0022944375 -0.0006562166 -0.0021515938 -0.013375609 -0.0055995244 -0.006530828 -0.010273848 -0.0113925645

model_CNN/conv1d/Conv1D f4 [64, 1, 3, 6]
00000000: d350 84bd 6906 a6bc 188b ddbd 5b02 ecbd
00000010: 0769 913d 911f 183e bfad 29be dd65 073e
00000020: 16f6 b23d c7cc edbc f47f 243d 186c 85bc
00000030: dd82 1abe b96a 083e cba3 18be d0fd 9a3d
00000040: 6f00 903b 5c07 de3d e329 153e a0f2 3dbd
00000050: 386f 84bd 065b 41bd de55 933d d675 ecbd
00000060: c440 c93d 4456 75bd 399c d0bc b020 fb3c
00000070: 7220 d9bd fb86 76bd 3f31 2cbc 479d 06be
00000080: cc40 0c3e ac6b 423c 298b 90bc c9eb 163e
00000090: 4d96 c6bd 998b 63bd 55fb 033e ea21 13be
000000a0: ae12 f03d dabe dcbd 62f8 cd3c c741 2dbe
000000b0: cb01 97bd df11 133c d942 20be a161 563d
000000c0: ecc1 21be 05d5 653d 2c75 fd3d d050 a73d
000000d0: 2fd5 9cbc f9f0 b8bc 34c4 133e efa4 2cbd
000000e0: 63ce 3b3d dfac df3d 9ce1 113c a92c 7cbd
000000f0: d97b 32be 4f06 7a3d e541 08be 15ff a239
00000100: 4d61 f33d bc8a 1cb8 421f 933d 9977 623d
00000110: fb3a 373d 513b f5bd f568 1dbe db2e 01be
00000120: b4f1 b8bd f606 10be 1823 8b3b 0db1 323d
00000130: e2eb e3bd 50cd 10be d6c9 b5bd 6e0b 9cbb
00000140: aa7c efbd 9603 b23d 82ca 15bd a0e0 283e
00000150: 3bbb 1abd 1146 c13d 60bc 2d3e 57c0 ffbd
00000160: 5403 7c3d 1e4e a03d 3f9c bb3c 7c21 343e
00000170: 15d6 103e dd85 2ebe 8b8b fbbd fc34 a83b
00000180: b90f 873d 50fd 39bc 992d f2bd 141e e23d
00000190: 0b53 07be f9c3 24bc 0589 34bc 55bb 563d
000001a0: c5fb 923c 955e b23d 03a2 42bd 6130 043d
000001b0: 7d77 f13d bb5b 133e 0578 4cbd 09a0 51bd
000001c0: ff21 af3c 2122 c93d 817f 123d e0e8 22be
000001d0: edb3 95bc 31cb 043e 1af9 65bd c074 223e
000001e0: 5dfd 30be 2c41 05be a838 ee3d be32 3cbd
000001f0: 981d 83bd a8c3 843d d50e 9b3d 3668 eebd
00000200: 5a8e 2c3e bdfd 83bd 3bcc cb3d 9a60 133e
00000210: 73a9 8cbd 1317 d33b 179e 7c3d a095 973d
00000220: 4d93 9cbd 4c01 97bc b1c6 273e 0ba7 d8bc
00000230: ee56 d13d 2060 ab3c b422 c5ba f801 c3bd
00000240: 03e5 cc3c f491 fb3d f40f 183c 0f79 97bd
00000250: 2b42 583d 84b3 c33d 1097 c63c 8845 b3bd
00000260: 7507 e63b 485b e9bd 9894 c7bd 43ac ce3d
00000270: 4df6 b13c d86c aebd 6dae fe3d 1f93 20be
00000280: 3627 1b3e b9f3 d93d ee0b f53d 5746 c63d
00000290: 92bd d3bd 8c93 e9bc 4385 80bd bd7d bbbd
000002a0: 1fea ec3d 0230 b3bd 3a55 823d 03be eb3c
000002b0: b839 f23d e7c9 cf3d c97e 913d c2bc 1f3e
000002c0: 0403 213e 5f67 16be c5c7 44bc 7a5b fcbd
000002d0: b79d f3bd b785 223d d7d7 eabd 3824 093d
000002e0: b8ef 6abd 34ae 003e 9fb9 16be fc2f 17be
000002f0: 8c05 953c 45b1 97bd 96b6 dc3d 0ff5 6dbd
00000300: 944a b13d 47ba 17be 49e1 0abe 1ac6 db3d
00000310: a20c 493d 5693 1e3e 0aa2 f0bd 4d63 9c3c
00000320: df07 c93d 50e3 d03c 6893 71bd d193 343d
00000330: 1013 cb3b 22df 8bbd 0bce 8dbd 04ff af3d
00000340: a3a4 8bbd e2e9 a73d 8efc cdbd 886e de3d
00000350: e8d5 4d3d 082c 263e 5a89 0f3d 1c68 dbbb
00000360: edc4 063e e4d7 b8bc 1fbc 323d 5607 843d
00000370: a76b 643c 67a1 0fbd f3a2 c8bd 5ab6 a73d
00000380: 6cd3 9f3c d1c7 123d b110 64bd 0139 1cbe
00000390: af81 953d 3c1f 163d e48e bf3d 7301 253e
000003a0: 0eeb 263d 80e2 1e3e c3a8 613d 1b8d a73d
000003b0: 6f02 063e 9b59 10bc ece5 223d 5671 253d
000003c0: 7a68 19be 6461 be3d d5cf 993d 0238 c8bd
000003d0: 89d0 703d e5e6 9b3d 5777 d2bc 0c6a 34bd
000003e0: 716a 1b3e 8415 603d c2fb 1bbb 630e 7dbd
000003f0: 5a30 2c3d 503e 8abc f4ed c5bd f19b c83d
-0.064607285 -0.020266728 -0.10817546 -0.11523887 0.071001105 0.14855792 -0.16570185 0.13222452
0.087383434 -0.02902831 0.040161088 -0.016286895 -0.15088983 0.13321961 -0.14906232 0.07567942
0.004394583 0.108412474 0.1456676 -0.046373963 -0.06466526 -0.047205947 0.07194112 -0.11545913
0.09826806 -0.059896722 -0.025465118 0.030655235 -0.106018916 -0.06018732 -0.010509788 -0.13145934
0.13696593 0.011866491 -0.017644482 0.14738382 -0.09696636 -0.055553053 0.12888844 -0.14368406
0.11722313 -0.107785895 0.025142852 -0.16919623 -0.07373389 0.008976429 -0.156505 0.0523392
-0.15796632 0.056111354 0.123758644 0.08169711 -0.019144623 -0.022575842 0.14430314 -0.04214948
0.045851123 0.109216444 0.008903887 -0.06156603 -0.17430057 0.061041173 -0.13306387 0.000310891
0.11883793 -3.7322505e-05 0.07183696 0.05528984 0.044733983 -0.11974204 -0.15372069 -0.1261553
-0.09030476 -0.14065155 0.004246127 0.04362588 -0.111289755 -0.1414082 -0.08876388 -0.0047621047
-0.116937 0.0869209 -0.03657008 0.16491938 -0.037776213 0.09437192 0.1696639 -0.12487858
0.06152661 0.078274 0.022901652 0.17590898 0.14144166 -0.17043252 -0.12282475 0.0051332694
0.06594796 -0.011351898 -0.11825103 0.11040893 -0.13215272 -0.010056489 -0.011018996 0.052424747
0.017942319 0.08709446 -0.047517788 0.0322727 0.11790369 0.14390461 -0.049919147 -0.051178012
0.021378515 0.09820963 0.03576613 -0.15909147 -0.018274272 0.12968136 -0.056145765 0.15864849
-0.1728415 -0.13013142 0.116319 -0.04594683 -0.06402129 0.06482631 0.07571188 -0.116409704
0.16851178 -0.06444881 0.09951063 0.1439232 -0.068682574 0.0064419596 0.061674204 0.074015856
-0.07645283 -0.018433236 0.16384389 -0.02644684 0.10221659 0.02091986 -0.001504025 -0.0952186
0.025011545 0.12283698 0.009281147 -0.07396137 0.052797478 0.09555724 0.024241954 -0.087534964
0.007019932 -0.11394364 -0.09745139 0.1009145 0.02172389 -0.08516854 0.12435613 -0.15681122
0.15151677 0.106421895 0.11965166 0.09681385 -0.10338892 -0.028512739 -0.06275418 -0.09154842
0.115680926 -0.08749391 0.06363912 0.028777128 0.11827415 0.10145932 0.071042605 0.15599349
0.15723807 -0.1468787 -0.012010519 -0.12322135 -0.11895316 0.0396783 -0.114669494 0.033481807
-0.05735752 0.12566453 -0.14719246 -0.14764398 0.018191122 -0.07406858 0.10777013 -0.058095034
0.08656803 -0.14817153 -0.13562502 0.10731144 0.049084313 0.15485892 -0.117496565 0.019090319
0.098159544 0.025499016 -0.05897847 0.04408628 0.006197341 -0.068296686 -0.06924065 0.08593562
-0.06818511 0.081989065 -0.100579366 0.10860926 0.050252825 0.16227734 0.035043098 -0.0066957604
0.13161059 -0.022563882 0.043636438 0.06446712 0.013941682 -0.035066035 -0.09796705 0.08189078
0.019509993 0.03583509 -0.05567998 -0.1525612 0.07300126 0.03665088 0.09353426 0.16113834
0.04075151 0.1551609 0.055092584 0.081812106 0.13086866 -0.008810426 0.03977005 0.04039129
-0.14981261 0.092959195 0.07510344 -0.09776308 0.058792625 0.07612399 -0.025691671 -0.044046447
0.15177323 0.05470802 -0.0023801182 -0.0617813 0.0420383 -0.016875416 -0.096645266 0.097953685

model_CNN/conv1d_1/Conv1D f4 [32, 1, 3, 64]
00000000: 96e0 a5bd 0081 f23d 8598 08be 5e97 253d
00000010: 1d6c 7dbd dcc9 a13d 9497 b9bb 858c dd3d
00000020: 7011 0cbe f316 aabd 2030 4fbd 98b7 6fbd
00000030: ee89 e23d 2ed7 c9bd 56fe c23d cbd7 f33d
00000040: 1a64 d03d 1388 a0bd e680 00bd d101 c83d
00000050: 50c8 5a3d c955 b0bd 0e91 1f3d 58f1 bc3d
00000060: 9657 73bd 6381 f3bd 08c4 f13c 9e74 023c
00000070: ba0a 4b3c 2cae 093e ad52 283d 09e2 b93d
00000080: f57f fbbd b2df 763d 404a 103d de94 d93d
00000090: c19c d43d e7ec 743d 4d42 a3bb ae28 b3bd
000000a0: 848d ee3d 6455 eabd 1341 073d 90d7 debd
000000b0: a7e1 6bbd 6d6a 5abd cc34 a43d 930d 113d
000000c0: 9b31 fd3d 5561 67bc c58f 21bd 896b b8bd
000000d0: 2387 edbd 5108 c13d 5cdf eebd c6dc 863d
000000e0: 0f4b e23d 4eca 8bbd d148 29bd 8037 b03d
000000f0: 7d8b 203b c04e ae3c 0652 f4bd 7c96 8bbd
00000100: 0460 943d de12 d6bd 1b0b d1bd 0e5b bf3d
00000110: 17aa 773d a638 1ebd fd30 c7bd 746d b0bd
00000120: c1a2 0ebe 8165 443d e82c e3bd fae3 8bbb
00000130: ca0b 843d 9541 17be 0ea3 18be dd66 623d
00000140: 727d e1bd 9a50 893d 6c6b b8bc 2f71 f4bd
00000150: 7569 7cbd 5f83 e13d db05 f83d 24ab d33d
00000160: b11b 54bc 57b1 c6bc 9f21 033e 9f72 acbd
00000170: b7bd b0bd 71b9 dabb 29e3 5abd f09d bb3d
00000180: 229f 633d 5b3b e73d b1c8 c9bd 673c cdbc
00000190: 68e5 ea3d c825 e33d 52f0 a4bd 0c76 95bd
000001a0: 0735 eabd 8e45 af3d dad6 06bd ff49 cdbd
000001b0: 8af1 01bc 3a8f b4bd 93d8 5dbd 8511 60bc
000001c0: b762 97bc 0867 c3bd 70cd 9ebb f2d6 e43d
000001d0: 19a2 ea3d d8d9 a23c d707 0e3e 6d12 0abe
000001e0: accc ebbd b691 a5bd d1af fb3d 861e 6c3d
000001f0: 07f2 ce3d ebfa 0abe 260f be3d a99f 0e3d
00000200: 98ec 34bd dc38 2bbd 45ac eb3d 4860 ea3d
00000210: 4066 983b fe64 523d e951 0b3e 4fd9 f03d
00000220: c161 d7bd 2b52 0a3d cf2f b6bd f716 ca3d
00000230: d842 9abd b943 943c 9e55 893d b95d 923d
00000240: 5a47 51bd 68b8 eabc 36cb 80bd a303 afbd
00000250: 68ec 14be e1be fabd f54d e93d b2a8 f23d
00000260: 7ff4 6b3d e955 e4bd 48ff f83d 7966 433d
00000270: 7716 c6bd a606 15be 3554 fbbd b8de b73d
00000280: b972 bd3d 5eb3 4e3d ce60 c6bd 2c95 b2bd
00000290: 79fc 373d 2e44 203c 660f 183d 3bcf 76bd
000002a0: eada c13d 9801 25bc c713 ebbb b34a 0cbe
000002b0: 9d38 0cbe 98ac 603d 1969 613d da98 283d
000002c0: 01cd 603d 93f5 c63d 5919 e23c 9d96 87bd
000002d0: 8e0b 023c a97e c93d 8023 17be 30df 02be
000002e0: a3bb a0bd 3ca8 d93d b52d b93d 0ee3 82bb
000002f0: 496d b63d 0692 6abd 9a80 44bd 5d5f 2abc
00000300: 77bc 3a3d 1390 713d 760d 033e 573b 13bd
00000310: 8fd4 833d 00b0 083e 9b89 813c ab77 a3bb
00000320: 9238 0fbe 749b b73d 4d5f a8bd 8585 543d
00000330: 4c52 993d 9b6d ffbd c34e 0ebe 3e70 b6bd
00000340: 1a0c 5b3d 7f3e 6a3d 5cfb d53d 83c3 013e
00000350: 541b 09be e9ce 603a fa4f 06bd 0d7f 9d3d
00000360: 43e8 083e 0008 64bd b36d ebbd c3c1 2ebd
00000370: 3e52 523d 7cb4 d93c 0e35 ce3b 430e d4bc
00000380: 7173 533d e753 0dbe ba1f 99bd 8f56 16be
00000390: 40f4 cd3d ccb4 a5bd 9a75 01be ae94 c83d
000003a0: 185c 93bd 9853 d5bd e98e f9bc fb69 04bd
000003b0: 7769 ab3d 0331 763d 4251 98bd a355 043e
000003c0: 3b8e 15bd 90e4 d43b e4dd 093d 6ab1 b43d
000003d0: c77a 10bd b8be c6bd e39c 54bd 2b02 c2bd
000003e0: 40ac 07be 49d1 7abc 93c9 b43d c4c4 05be
000003f0: 5f12 923c bce1 2fbc cbc2 1abc 1307 9a3d
-0.08099477 0.11841011 -0.13339432 0.040427558 -0.061870683 0.0789983 -0.0056638215 0.108178176
-0.13678527 -0.083051585 -0.050583005 -0.058524698 0.11061464 -0.098554954 0.09521167 0.119063936
0.10175343 -0.07838454 -0.031372927 0.097659715 0.05341369 -0.08610112 0.038956694 0.0922572
-0.0594097 -0.11889913 0.02951242 0.007962374 0.012392694 0.13445348 0.04109447 0.09076316
-0.12280265 0.060271926 0.03522706 0.10624097 0.10381461 0.05979624 -0.004982269 -0.087479934
0.11648086 -0.11442068 0.033021044 -0.10880959 -0.057588246 -0.05332415 0.08017883 0.035413336
0.12362977 -0.014122327 -0.03944375 -0.09004886 -0.11598041 0.09425414 -0.11663696 0.06585078
0.110494725 -0.06825696 -0.04132921 0.08604336 0.0024497204 0.021277785 -0.11929707 -0.06815812
0.07244876 -0.104528174 -0.10207196 0.09343539 0.060464945 -0.038628243 -0.09726141 -0.086146265
-0.13929273 0.047948364 -0.110925496 -0.0042691203 0.06447561 -0.14771111 -0.1490595 0.05527388
-0.11010255 0.06704827 -0.02251216 -0.119356506 -0.06162401 0.11011385 0.12110492 0.10335377
-0.012946055 -0.024254484 0.12805794 -0.084203 -0.08629935 -0.0066749384 -0.053439293 0.091609836
0.055571683 0.11290618 -0.09852732 -0.025053216 0.11469537 0.110911906 -0.0805365 -0.07297906
-0.114358954 0.085581884 -0.032919742 -0.10023879 -0.007931123 -0.08816381 -0.05416162 -0.013676052
-0.018479688 -0.09541136 -0.0048462674 0.1117381 0.11456699 0.019879267 0.13870178 -0.13483591
-0.115136474 -0.08084433 0.12289394 0.057646297 0.10104757 -0.1357228 0.09280233 0.034820233
-0.044170946 -0.041802272 0.11507467 0.114441454 0.004650861 0.051365845 0.13605465 0.11760198
-0.10516692 0.033769768 -0.088958375 0.098676614 -0.07532281 0.018098699 0.06705783 0.071467824
-0.051093437 -0.028652385 -0.062887594 -0.085456155 -0.14543307 -0.122434385 0.11391822 0.11848582
0.057606217 -0.111491986 0.12158066 0.047705147 -0.096722536 -0.14553317 -0.122719206 0.08978027
0.09250397 0.050464027 -0.09686433 -0.087198585 0.04491851 0.00978188 0.03712406 -0.060256224
0.09465583 -0.010071181 -0.0071739885 -0.1370037 -0.13693471 0.0548521 0.05503187 0.041161396
0.054883007 0.09714808 0.027599977 -0.06620524 0.007937325 0.09838612 -0.14759636 -0.12780452
-0.07848289 0.10627791 0.09041921 -0.003994352 0.08907563 -0.057268165 -0.047974207 -0.010398713
0.04558989 0.05897529 0.12798104 -0.035945263 0.06437027 0.13348389 0.015812686 -0.004988631
-0.13986424 0.08965197 -0.08221302 0.051885147 0.074864 -0.124720775 -0.13897233 -0.08908127
0.053478338 0.057188507 0.104483336 0.12672238 -0.13389331 0.0008575754 -0.032791115 0.07690249
0.13369851 -0.055671692 -0.11495533 -0.042665254 0.051347964 0.02657532 0.0062929457 -0.025885707
0.051623765 -0.13801537 -0.074767545 -0.14681457 0.100563526 -0.08091125 -0.12642518 0.097939834
-0.071953 -0.10416335 -0.030463653 -0.032327633 0.08369725 0.060105335 -0.07437374 0.12923293
-0.036512595 0.0064969733 0.033658877 0.088229015 -0.03527334 -0.097043455 -0.05190743 -0.0947307
-0.13249302 -0.0153086865 0.0882751 -0.13063341 0.017831026 -0.010734972 -0.009445856 0.075208806

model_CNN/dense/BiasAdd/ReadVariableOp f4 [32]
00000000: d614 03bc 29af c4bb c017 843b e3cb 01bc
00000010: 1a8a 09bc ee55 dcbb cd46 cfbb 6ea4 b7bb
00000020: 3ad8 86bc a299 68bb 829a 9ebb fb94 c83a
00000030: 933e 09bc b014 85bc e477 58bb f92b 09bc
00000040: 6796 b5bb 8fbb c4bb f1b4 efbb 1a87 51bc
00000050: b998 ebbb d7b1 87bb f036 c4bb 985b 1cbb
00000060: 0996 90bb 22b9 b0bb 1b5a f6b9 c16a bebb
00000070: 037e cabb 0d0c c3bb 284e 01bc f8db 87bb
-0.008000573 -0.006002326 0.0040311515 -0.007922146 -0.008394742 -0.006724111 -0.006325579 -0.0056043183
-0.016460527 -0.0035491963 -0.004840196 0.0015303189 -0.008376735 -0.016245216 -0.0033030445 -0.0083723
-0.005541611 -0.006003804 -0.007315271 -0.012788558 -0.007189837 -0.004141073 -0.0059879944 -0.0023858305
-0.004412417 -0.0053931633 -0.0004698791 -0.005811066 -0.0061795725 -0.0059523643 -0.007892169 -0.0041460954

model_CNN/dense_1/BiasAdd/ReadVariableOp f4 [3]
00000000: 88a2 893c 9f31 f23d 81a1 edbd
0.016801134 0.11825871 -0.1160307

model_CNN/dense/MatMul f4 [32, 1984]
00000000: 640c 4f3d 9353 1f3d 823b 48bd 7b41 14bd
00000010: d3ec 96bc 2668 1fbd ddca 673c 0f87 a73c
00000020: 10b9 3fbb 6492 4f39 0cc4 983b 4258 a9bc
00000030: fdf1 193d 3a99 dcbc e5b1 513c e99f dbbc
00000040: 03e0 bb3b 0b43 c2bc a344 1f3d b24a e93c
00000050: 6117 043d 86e4 ee3c 36b0 da3c f4cc abbc
00000060: 9c4b 163d 25a2 b23b eea1 323d 65ba 2fbc
00000070: c3d5 183d 0a52 13bd 32e9 f2bc 7463 26bc
00000080: d3de d63c e6f2 243d d6fc 943b fa9c 233b
00000090: 9077 f6bc 8008 bbb9 97c6 053d ba5b 543c
000000a0: 8a9c ab3b a319 013d 94cd 0f3d 7a4e d13c
000000b0: 7194 123d 92f3 db3c 82a5 68bc 9033 343d
000000c0: e758 5bba 2cfa eb3c cba8 3e3d baa4 5ebd
000000d0: ef41 c2bc b672 a5bc 9ebc 18bd 6885 ddbc
000000e0: f652 d73a 6782 363d 613e 6bbd 9f5c d93c
000000f0: c8b2 2f3d cc5d 2a3c 1a30 873c 36f8 5dbc
00000100: 7565 12bb 799c 43bd 30e5 67bd bf0b 03bd
00000110: 558e 1d3d 0dff 053d 6229 1fbd 4b27 71bd
00000120: cb6a 303d bc62 7fbc b64f 393b 9c97 0a3c
00000130: 6946 3b3c f4db 83bc 5370 163d e13d 30bd
00000140: 3611 47bd 5130 6f39 4274 013c ef52 0cbd
00000150: 8703 bcbb 7ef8 7abd 619d 233d 6042 ffbc
00000160: 481a 26bd cb1a 963a fb5a e03b 0736 3ebc
00000170: 0671 14bd 3b81 4fbd dcd7 793c 21ef e43b
00000180: d82d c73c a53f 5dbd 43e9 4e3b b4e2 64bd
00000190: efd5 3cbd d3b6 22bd f1d5 45bd 2320 a6bc
000001a0: 99b2 9a3c f2b3 053d bac6 33bd 862f bf3c
000001b0: 2167 b03b fb8e cd3b 07ed 20bd f2f7 643d
000001c0: cd06 a83b b0e2 0c3c e13f 10bd 3c7b 00bd
000001d0: a282 e6bb f206 28bd 82db 40bd 1030 7a3b
000001e0: e23e 3a3d 1399 c43c 864e d43c 4978 523d
000001f0: 3b43 50bd 8e88 eb3c 1891 40bc 8292 c7bc
00000200: 476e 233d c01e 133a dbf4 a4bc bc92 c63c
00000210: b06a 50bb cd71 3dbd 2c7e 22bd b91f 0a3d
00000220: 5251 3f3d a5ea ebbc 90ac 183c c614 8f3c
00000230: 773a 09bd dcb2 ff3c bdc5 ea3c a2d8 f7bc
00000240: cb52 3f3d 076e b2bc 7d7b b63c 112b 30bd
00000250: 90fb 4c3d d47d dc3c a957 2a3d 57a4 99bc
00000260: 66c5 cd3c f24e 39bc e628 01bd 35a5 0e3d
00000270: a061 51bd 7652 e33c 0a82 f9bc 4887 63bb
00000280: 154d 81bd c36e fd3c 2215 5fbd 233a 25bd
00000290: 193d 1a3d bcf0 053c ab82 203d 4ddb 113d
000002a0: 86fd bf3c 24d4 5cbd d7f7 29bd 8157 563d
000002b0: af97 df3c b8af 113d 43c4 6e3b 5569 22bd
000002c0: f218 30bd ebc9 01bd 1b26 49bd 746a 7c3c
000002d0: 79f6 333d aa81 62bd c14c f2bc 4372 35bd
000002e0: 6eb6 073d f2da a7bc 67f4 5ebd a68a 7f3c
000002f0: 7009 6fbd 2085 9c3a 2f9d bbbc c6c5 45bd
00000300: f60d b5bc 35d8 31bc 2a1c 68bd dd30 65bd
00000310: 9593 253d 82fb 90bc de0c fcbc f69e aebc
00000320: 2616 62bd 3b6c 093d 1ed8 b83c dabd bd3c
00000330: 415d 5dbd 5608 713b d8ad 2e3c df92 153d
00000340: a0b8 2fbd 5554 a8bc 33aa 0abd 00a3 07b9
00000350: 9de5 9fbc 25ed df3c 9331 89bc 8fce 2d3d
00000360: 00f3 beb9 ecca fc3b de08 edbb 6b5d 43bd
00000370: 893a 2a3d 0ce6 42bc b44b 90bc 4214 63bc
00000380: 4ffa 8bbb a6ae d73c 5484 993b 5005 16bd
00000390: 17f1 d5bc a339 323d db43 b0bb 8248 2fbd
000003a0: 6878 1dbd 4e58 cbbc e5bd 4cbd 8b43 6d3d
000003b0: d999 2abc 6f25 8e3c d7cf 04bd 75a1 09bd
000003c0: 7c4d 903c 56f3 70bc 696a e0bc 6050 cfba
000003d0: 0b34 7bbd 7b50 65bd 54dc 563b 4e5a f23c
000003e0: 7ac2 69bc 6af8 49bd a2fa 923c 01aa 6abd
000003f0: f208 1b3d 23b9 283d 41c1 44bd f953 483c
0.050548926 0.038898062 -0.048884876 -0.03619526 -0.018423473 -0.038917683 0.0141474875 0.020450143
-0.0029254593 0.00019795593 0.0046620425 -0.020671967 0.037584294 -0.026928533 0.012798761 -0.02680965
0.0057334914 -0.02371361 0.038883816 0.028478 0.03224886 0.029161703 0.026695352 -0.020971753
0.0366932 0.005451458 0.04361146 -0.010725592 0.037313234 -0.03596691 -0.029652212 -0.010155547
0.026229298 0.04027071 0.004546742 0.0024965391 -0.030086309 -0.00035673752 0.032660093 0.012961322
0.005237167 0.03151859 0.035108164 0.025550116 0.035786096 0.026849542 -0.014199616 0.043994486
-0.00083674345 0.028805815 0.046547692 -0.054356314 -0.02371308 -0.0201963 -0.037289254 -0.027041152
0.0016427923 0.044557955 -0.057432536 0.026533423 0.04289511 0.0103983395 0.016502429 -0.013547948
-0.0022338305 -0.047756646 -0.056615055 -0.031993624 0.038465817 0.03271394 -0.038857825 -0.058875363
0.043070596 -0.015587505 0.0028276271 0.008458998 0.011430361 -0.016096093 0.036728214 -0.043027762
-0.048600398 0.00022810815 0.007901253 -0.03425878 -0.005737725 -0.061272137 0.03994501 -0.03115958
-0.040552408 0.0011452077 0.006846783 -0.011609561 -0.0362406 -0.050660353 0.015249219 0.006986514
0.024313852 -0.054015774 0.003157214 -0.055880263 -0.04610246 -0.039725136 -0.048299734 -0.020278996
0.01888399 0.032642312 -0.043890692 0.02333809 0.0053833877 0.006273148 -0.039288547 0.05590052
0.005127764 0.008598968 -0.03521717 -0.031367525 -0.0070346156 -0.04102225 -0.04708434 0.003817562
0.045470126 0.023998773 0.02591635 0.051384244 -0.050845366 0.028751638 -0.011753343 -0.024361853
0.03990009 0.0005612187 -0.020136287 0.02423989 -0.0031801872 -0.046251107 -0.039671108 0.03372166
0.046708412 -0.02879841 0.009318486 0.01746596 -0.033503022 0.031213216 0.028658742 -0.030254666
0.046709817 -0.02178098 0.02227568 -0.04300982 0.050044596 0.026915468 0.041587505 -0.018755121
0.025118541 -0.011310326 -0.031533144 0.034825522 -0.051118493 0.027749281 -0.030457515 -0.0034718085
-0.0631353 0.030936604 -0.054463513 -0.040338647 0.037655924 0.008175071 0.039187115 0.035609532
0.02343632 -0.05391325 -0.041496124 0.052329544 0.027294008 0.03556797 0.00364329 -0.039651234
-0.04299254 -0.031686705 -0.049108606 0.01540624 0.043936227 -0.05529944 -0.029577615 -0.04429842
0.033132963 -0.020490143 -0.0544323 0.015597021 -0.05835861 0.001194153 -0.0229021 -0.048284315
-0.022101384 -0.01085477 -0.056667484 -0.055954803 0.04042395 -0.017698053 -0.030767854 -0.021316033
-0.055196904 0.033550482 0.02256399 0.023161817 -0.054044012 0.003677865 0.010661565 0.03651702
-0.04290068 -0.020548025 -0.03385372 -0.00012935326 -0.019518668 0.027334759 -0.016747272 0.042433318
-0.00036420673 0.00771462 -0.007233723 -0.047696512 0.04155973 -0.011895668 -0.017614223 -0.01385981
-0.0042717825 0.026328396 0.004684964 -0.03662616 -0.026115937 0.043511998 -0.0053791828 -0.04279376
-0.038444906 -0.02482238 -0.049985785 0.057925742 -0.010412657 0.017351834 -0.032424774 -0.033601243
0.017615072 -0.014706453 -0.02739449 -0.00158168 -0.06132893 -0.055984955 0.0032785134 0.029584076
-0.014267558 -0.04930917 0.017941777 -0.057291035 0.037850328 0.041192185 -0.048035864 0.012227052

model_CNN/dense_1/MatMul f4 [3, 32]
00000000: 5f43 dcbd 7e1a 653e fd67 b43e 9717 a5be
00000010: 0c89 1f3e 9efe 0e3e f20f b23e 56a6 e0bb
00000020: 1922 883e 6fd2 48be 3ea4 b23e 72b0 83bc
00000030: 6771 9c3e 5d90 933e 6f01 5c3e b7ce 193d
00000040: 5a05 95be 1576 ba3e 385a 99be 231b cb3e
00000050: 717d 243e 1ba1 e73d ecfa 82be bb13 8ebd
00000060: 1b9b 97be b6a0 2fbe ae46 be3e 5dc2 c93e
00000070: 9b02 b23e 3b5e 3bbc c79c 583e 5157 90be
00000080: ee8e c2be 9e4b b53e f0d7 99ba 029c 4d3e
00000090: b90d c0be ea69 bcbe d7f5 0f3c d3a7 91be
000000a0: 7471 593e 53cf a23e 76db db3d 80ab 2d3e
000000b0: 4888 97bd b04f 21bd 5692 9d3e 2048 79bd
000000c0: 79a6 d83d f733 303e bb24 84be 6a85 47be
000000d0: fb35 4dbe c620 c2be d541 d1be c6da 4a3e
000000e0: 3b86 c3be b372 943d eb3f 873e bcbc 70be
000000f0: 2efd 71be a94d 543d ee18 c83d 84d7 01bd
00000100: be64 013c 30c0 2ebe a805 673e 9613 773d
00000110: 22eb 9d3d f6c7 69be 8edb acbc 1281 aebe
00000120: 4fe5 b03e 38d2 6fbe 78f5 29be 4ab2 92bd
00000130: c422 4d3e 06fe 9f3e 4ae1 83be 3a00 ca3e
00000140: a3f8 d83d 9837 c73c 8276 a43e b9d3 be3e
00000150: 863c 93bb 2eb7 87be f47e a0be 0a67 c8be
00000160: 96a5 9e3e 5136 453e 867c 223e df99 8a3d
00000170: 7cb6 50be 2817 b6be 1b6c 383e 7d49 b03d
-0.107550375 0.22373387 0.35235587 -0.3224456 0.15579623 0.13964316 0.3477779 -0.0068557663
0.26588514 -0.19611524 0.34890932 -0.016075347 0.3055527 0.28821078 0.21484922 0.037550654
-0.29105645 0.36418214 -0.29951644 0.3966914 0.16063477 0.11310025 -0.25582063 -0.06937357
-0.29610524 -0.1715115 0.371633 0.394061 0.34767613 -0.0114360405 0.21153556 -0.28191617
-0.37999672 0.35409254 -0.0011737328 0.20079044 -0.3751047 -0.36799556 0.00878664 -0.28448352
0.21234685 0.317988 0.10735218 0.16959953 -0.073990405 -0.039382637 0.30775708 -0.0608598
0.10578627 0.17207323 -0.25809273 -0.19484487 -0.20040123 -0.3791563 -0.40870538 0.19810018
-0.38188347 0.0724844 0.26415953 -0.23509496 -0.23631737 0.051831875 0.0977038 -0.031699672
0.007897554 -0.17065501 0.22560751 0.060321413 0.07710864 -0.22830185 -0.021100786 -0.34082848
0.3454995 -0.23420036 -0.16597545 -0.07162912 0.20032793 0.31248492 -0.2575782 0.39453298
0.10594299 0.024318501 0.32121664 0.37270907 -0.004493299 -0.26506943 -0.31346858 -0.39141113
0.30985707 0.19259001 0.15867814 0.0676763 -0.20382112 -0.35564542 0.18009989 0.08607767
